Memory used before starting :  17.03936 937.426944
[(256, 7), (128, 7), (64, 5), (32, 3), (16, 3)]
Cnet(
  (feature_extractor): Sequential(
    (conv1): Conv2d(3, 256, kernel_size=(7, 7), stride=(1, 1), padding=(3, 3))
    (bn1): BatchNorm2d(256, eps=1e-05, momentum=0.1, affine=True, track_running_stats=True)
    (act1): GELU(approximate='none')
    (pool1): MaxPool2d(kernel_size=2, stride=2, padding=0, dilation=1, ceil_mode=False)
    (conv2): Conv2d(256, 128, kernel_size=(7, 7), stride=(1, 1), padding=(3, 3))
    (bn2): BatchNorm2d(128, eps=1e-05, momentum=0.1, affine=True, track_running_stats=True)
    (act2): GELU(approximate='none')
    (pool2): MaxPool2d(kernel_size=2, stride=2, padding=0, dilation=1, ceil_mode=False)
    (conv3): Conv2d(128, 64, kernel_size=(5, 5), stride=(1, 1), padding=(2, 2))
    (bn3): BatchNorm2d(64, eps=1e-05, momentum=0.1, affine=True, track_running_stats=True)
    (act3): GELU(approximate='none')
    (pool3): MaxPool2d(kernel_size=2, stride=2, padding=0, dilation=1, ceil_mode=False)
    (conv4): Conv2d(64, 32, kernel_size=(3, 3), stride=(1, 1), padding=(1, 1))
    (bn4): BatchNorm2d(32, eps=1e-05, momentum=0.1, affine=True, track_running_stats=True)
    (act4): GELU(approximate='none')
    (pool4): MaxPool2d(kernel_size=2, stride=2, padding=0, dilation=1, ceil_mode=False)
    (conv5): Conv2d(32, 16, kernel_size=(3, 3), stride=(1, 1), padding=(1, 1))
    (bn5): BatchNorm2d(16, eps=1e-05, momentum=0.1, affine=True, track_running_stats=True)
    (act5): GELU(approximate='none')
    (pool5): MaxPool2d(kernel_size=2, stride=2, padding=0, dilation=1, ceil_mode=False)
  )
  (classifier): Sequential(
    (0): Linear(in_features=784, out_features=1024, bias=True)
    (1): BatchNorm1d(1024, eps=1e-05, momentum=0.1, affine=True, track_running_stats=True)
    (2): GELU(approximate='none')
    (3): Dropout(p=0.5, inplace=False)
    (4): Linear(in_features=1024, out_features=10, bias=True)
  )
)
Number of parameters: 2688730
Memory used :  27.815424 937.426944
Epoch 1 peak memory used: 29923.17 MB
Epoch 1/15 | Train Loss: 2.2332 | Val Loss: 2.0910 | Val Acc: 25.60%
Epoch 2 peak memory used: 29923.17 MB
Epoch 2/15 | Train Loss: 2.0525 | Val Loss: 2.0184 | Val Acc: 31.70%
Epoch 3 peak memory used: 29923.17 MB
Epoch 3/15 | Train Loss: 1.9658 | Val Loss: 2.0013 | Val Acc: 32.50%
…
