Memory used before starting :  0.0 0.0
[(64, 7), (64, 7), (64, 5), (64, 3), (64, 3)]
Cnet(
  (feature_extractor): Sequential(
    (conv1): Conv2d(3, 64, kernel_size=(7, 7), stride=(1, 1), padding=(3, 3))
    (bn1): BatchNorm2d(64, eps=1e-05, momentum=0.1, affine=True, track_running_stats=True)
    (act1): SiLU()
    (pool1): MaxPool2d(kernel_size=2, stride=2, padding=0, dilation=1, ceil_mode=False)
    (conv2): Conv2d(64, 64, kernel_size=(7, 7), stride=(1, 1), padding=(3, 3))
    (bn2): BatchNorm2d(64, eps=1e-05, momentum=0.1, affine=True, track_running_stats=True)
    (act2): SiLU()
    (pool2): MaxPool2d(kernel_size=2, stride=2, padding=0, dilation=1, ceil_mode=False)
    (conv3): Conv2d(64, 64, kernel_size=(5, 5), stride=(1, 1), padding=(2, 2))
    (bn3): BatchNorm2d(64, eps=1e-05, momentum=0.1, affine=True, track_running_stats=True)
    (act3): SiLU()
    (pool3): MaxPool2d(kernel_size=2, stride=2, padding=0, dilation=1, ceil_mode=False)
    (conv4): Conv2d(64, 64, kernel_size=(3, 3), stride=(1, 1), padding=(1, 1))
    (bn4): BatchNorm2d(64, eps=1e-05, momentum=0.1, affine=True, track_running_stats=True)
    (act4): SiLU()
    (pool4): MaxPool2d(kernel_size=2, stride=2, padding=0, dilation=1, ceil_mode=False)
    (conv5): Conv2d(64, 64, kernel_size=(3, 3), stride=(1, 1), padding=(1, 1))
    (bn5): BatchNorm2d(64, eps=1e-05, momentum=0.1, affine=True, track_running_stats=True)
    (act5): SiLU()
    (pool5): MaxPool2d(kernel_size=2, stride=2, padding=0, dilation=1, ceil_mode=False)
  )
  (classifier): Sequential(
    (0): Linear(in_features=3136, out_features=512, bias=True)
    (1): BatchNorm1d(512, eps=1e-05, momentum=0.1, affine=True, track_running_stats=True)
    (2): SiLU()
    (3): Dropout(p=0.3, inplace=False)
    (4): Linear(in_features=512, out_features=10, bias=True)
  )
)
Number of parameters: 1999498
Memory used :  8.014848 23.068672
Epoch 1 peak memory used: 7960.77 MB
Epoch 1/10 | Train Loss: 2.1347 | Val Loss: 2.0352 | Val Acc: 30.25%
Epoch 2 peak memory used: 7960.78 MB
Epoch 2/10 | Train Loss: 1.9954 | Val Loss: 1.9864 | Val Acc: 33.30%
Epoch 3 peak memory used: 7960.78 MB
Epoch 3/10 | Train Loss: 1.9185 | Val Loss: 1.9872 | Val Acc: 32.95%
…
