Memory used before starting :  17.03936 813.694976
[(32, 7), (64, 7), (128, 5), (256, 3), (512, 3)]
Cnet(
  (feature_extractor): Sequential(
    (conv1): Conv2d(3, 32, kernel_size=(7, 7), stride=(1, 1), padding=(3, 3))
    (bn1): BatchNorm2d(32, eps=1e-05, momentum=0.1, affine=True, track_running_stats=True)
    (act1): SiLU()
    (pool1): MaxPool2d(kernel_size=2, stride=2, padding=0, dilation=1, ceil_mode=False)
    (conv2): Conv2d(32, 64, kernel_size=(7, 7), stride=(1, 1), padding=(3, 3))
    (bn2): BatchNorm2d(64, eps=1e-05, momentum=0.1, affine=True, track_running_stats=True)
    (act2): SiLU()
    (pool2): MaxPool2d(kernel_size=2, stride=2, padding=0, dilation=1, ceil_mode=False)
    (conv3): Conv2d(64, 128, kernel_size=(5, 5), stride=(1, 1), padding=(2, 2))
    (bn3): BatchNorm2d(128, eps=1e-05, momentum=0.1, affine=True, track_running_stats=True)
    (act3): SiLU()
    (pool3): MaxPool2d(kernel_size=2, stride=2, padding=0, dilation=1, ceil_mode=False)
    (conv4): Conv2d(128, 256, kernel_size=(3, 3), stride=(1, 1), padding=(1, 1))
    (bn4): BatchNorm2d(256, eps=1e-05, momentum=0.1, affine=True, track_running_stats=True)
    (act4): SiLU()
    (pool4): MaxPool2d(kernel_size=2, stride=2, padding=0, dilation=1, ceil_mode=False)
    (conv5): Conv2d(256, 512, kernel_size=(3, 3), stride=(1, 1), padding=(1, 1))
    (bn5): BatchNorm2d(512, eps=1e-05, momentum=0.1, affine=True, track_running_stats=True)
    (act5): SiLU()
    (pool5): MaxPool2d(kernel_size=2, stride=2, padding=0, dilation=1, ceil_mode=False)
  )
  (classifier): Sequential(
    (0): Linear(in_features=25088, out_features=1024, bias=True)
    (1): BatchNorm1d(1024, eps=1e-05, momentum=0.1, affine=True, track_running_stats=True)
    (2): SiLU()
    (3): Dropout(p=0.5, inplace=False)
    (4): Linear(in_features=1024, out_features=10, bias=True)
  )
)
Number of parameters: 27490826
Memory used :  127.025664 813.694976
Epoch 1 peak memory used: 3343.32 MB
Epoch 1/10 | Train Loss: 2.1306 | Val Loss: 2.0271 | Val Acc: 30.00%
Epoch 2 peak memory used: 3341.33 MB
Epoch 2/10 | Train Loss: 1.9922 | Val Loss: 1.9965 | Val Acc: 32.40%
Epoch 3 peak memory used: 3341.33 MB
Epoch 3/10 | Train Loss: 1.9182 | Val Loss: 1.9493 | Val Acc: 34.20%
…
